datasets/net.pth (torch, 342607 bytes, 8 tensors)

body.0.weight f4 [12, 3, 5, 5]
000000 a2 29 f1 be 68 e9 c8 bd 68 eb 75 be 2c 8f 08 be
       -0.47102076 -0.09810144 -0.24015582 -0.13335866
000010 68 26 e2 be d0 75 4d 3e d0 7a e5 be 70 80 02 bd
       -0.44169927 0.20064473 -0.4482026 -0.03186077
000020 3c fa 31 3e 3c 95 2c be 2e 42 91 3e 48 27 81 3d
       0.17380613 -0.16853803 0.28370804 0.063063204
000030 34 b9 8c 3e 3c 40 a4 3e 54 05 62 be 78 12 3a 3e
       0.2748505 0.32080257 -0.22072345 0.18171108
000040 50 84 5d be f0 7d 20 3e cc c1 85 be d8 d5 6c 3e
       -0.21632504 0.15673041 -0.26124418 0.2312845
000050 d0 4d cf 3d 20 5e 48 be 40 22 7b be 70 77 04 3e
       0.101222634 -0.19567156 -0.24524784 0.12936187
000060 8a da ee 3e 40 b5 75 3e 70 c3 45 bd 20 d0 c6 bc
       0.46651107 0.23994923 -0.048282087 -0.024269164
000070 ec 81 91 3e 04 ec b1 be bc 36 2a 3e 38 a7 29 be
       0.28419435 -0.34750378 0.16622442 -0.16567695
000080 e0 1d 94 3e 14 a4 36 be 80 89 ca 3c 94 e4 2c 3e
       0.28929043 -0.17836028 0.024723768 0.1688407
000090 44 ee af 3e d0 82 96 bd f4 8b e9 3e 7a 96 d8 be
       0.3436147 -0.07349169 0.45614588 -0.42302305
0000a0 c8 a8 b6 bd ea 46 ff be 00 a8 29 3d a4 4b 11 3e
       -0.08918911 -0.4985879 0.041419983 0.14189011
0000b0 d4 42 4f be 40 a5 54 3e e8 ff a5 bd fc 75 de be
       -0.20240337 0.20766163 -0.08105451 -0.4344939
0000c0 26 8a c4 3e 18 d7 9d 3e 82 6f 81 3e 96 33 cc 3e
       0.3838665 0.30828166 0.25280386 0.39883107
0000d0 cc 45 3c 3e d6 1c 88 3e f4 6f d4 3e 78 51 ce bd
       0.18386 0.265845 0.41491663 -0.10074133
0000e0 e4 a7 c7 be 34 cc 7b be c8 b1 88 bd 40 0c 61 bd
       -0.38995278 -0.24589616 -0.06674534 -0.054943323
0000f0 00 16 5e bb d6 b4 92 3e b8 3e 24 3e c8 48 bd be
       -0.0033887625 0.28653592 0.1603955 -0.3696959
000100 bc ce 19 be 48 e5 f0 bd 1a ce 9b 3e 30 be 39 be
       -0.15020269 -0.11762482 0.3043068 -0.18138957
000110 80 36 56 be a0 a3 a4 bd ec 3c 02 be 18 20 fc bd
       -0.20919228 -0.080390215 -0.12718552 -0.12310809
000120 1e 7b fa be be 17 e4 3e ca 3f 88 3e 84 45 72 be
       -0.48922056 0.44549364 0.26611167 -0.2365933
000130 0e ba 9f be 80 7f 8e 3c b2 dc 91 3e 58 b7 b7 be
       -0.31196636 0.017394781 0.2848869 -0.35882068
000140 4c 5f 41 be 40 28 56 3e ae 1f a5 be 80 0b 64 bd
       -0.18884009 0.20913792 -0.32250732 -0.05567503
000150 90 0c c1 be d8 71 ed 3e 8c fe 89 3e 90 a0 ec be
       -0.37704897 0.46375918 0.26952016 -0.4621625
000160 54 57 8d be b0 7e 35 3e 40 7b e0 3c 4c af 07 3e
       -0.2760569 0.17724109 0.02740252 0.13250464
000170 a2 6d d1 be 9e 12 89 be 48 50 68 3e 56 33 c3 be
       -0.40903956 -0.26772016 0.22686875 -0.38125104
000180 90 ca d6 bd 88 27 61 3e 4a de 84 3e a0 ad fe 3c
       -0.104878545 0.21987736 0.25950843 0.03108865
000190 98 6c 14 3e 1c c2 63 3e c0 41 6f bd f4 e4 0b be
       0.1449455 0.22242016 -0.058412313 -0.13661557
0001a0 0a 7f c3 3e dc 8d f9 3e bc 28 6d 3e 28 d0 5f be
       0.3818286 0.48741043 0.2316007 -0.21856749
0001b0 18 ae de be 14 ad fc be 00 af 62 3b c4 71 44 be
       -0.43492198 -0.49350798 0.0034589171 -0.19184023
0001c0 78 d7 00 be b0 ff 8f bd 38 1a f2 3e 08 a8 f2 3e
       -0.12582195 -0.070311904 0.47285628 0.47393823
0001d0 e0 7a 3f bd 64 be 19 be 64 a5 78 3e 90 6c 23 bd
       -0.046748042 -0.15014035 0.24281842 -0.039898455
0001e0 2a 96 f3 be 38 e5 26 3e 2e 15 f5 3e 9c ec ca be
       -0.47575504 0.16298378 0.4786772 -0.39633644
0001f0 38 28 dd bd f0 11 de 3d 92 76 d0 be 58 2d db be
       -0.10798687 0.10843265 -0.40715462 -0.42808032
000200 d2 1c bf 3e 00 4c 35 be f2 54 95 3e 20 16 37 3d
       0.37326676 -0.17704773 0.2916637 0.044698834
000210 c8 d7 f9 3d 4c 9d aa be f8 b2 da bd e4 de a8 3e
       0.1219936 -0.33323133 -0.10678667 0.32982552
000220 e4 d5 6a 3e 3c 08 14 be 50 f1 7b 3d 8e ff c3 3e
       0.22933155 -0.14456266 0.06150943 0.3828091
000230 78 4e e0 be ee 70 a4 3e 64 e0 19 be 78 51 d0 bd
       -0.43809867 0.3211741 -0.15027004 -0.10171789
000240 e8 a3 73 3e 98 ac d4 be 00 b2 9a bd aa a3 f4 3e
       0.23792994 -0.4153793 -0.07553482 0.47781116
000250 d0 45 38 3e 5c 52 3d be 70 0c df bd 52 e3 c9 3e
       0.17995381 -0.18488449 -0.10891044 0.39431244
000260 04 70 41 3e 1c 89 ad 3e fa d9 a4 be 78 9c 13 3e
       0.18890387 0.3389367 -0.32197553 0.14415157
000270 60 0c b7 3d a8 7f b2 3d 92 b5 ed 3e da b6 8d 3e
       0.08937907 0.08715755 0.4642759 0.27678567
000280 26 76 b0 3e 68 d0 60 3e 80 2f 57 3e e0 1d b2 bd
       0.3446514 0.219545 0.21014214 -0.086971045
000290 0a f1 e1 be 38 40 d8 be 80 71 9f be d4 be a5 be
       -0.4412921 -0.42236495 -0.3114128 -0.32372153
0002a0 e0 06 71 3e 50 7f 1e 3e e0 fd 11 be a8 02 c3 be
       0.23537779 0.15478253 -0.14257002 -0.38087964
0002b0 e2 05 fc 3e 30 5f c0 3e 78 7f 73 3e d2 65 fd 3e
       0.49223238 0.37572622 0.23779094 0.49491745
0002c0 e2 4b 88 be 70 c9 91 be fc d8 95 be 00 4e c6 bc
       -0.26620394 -0.28473997 -0.29267108 -0.024207115
0002d0 2a fb e1 be 04 a9 ca 3e 80 bc 52 3c 3c f9 7e 3e
       -0.44136935 0.39582074 0.012862325 0.24899763
0002e0 7a 96 8c be 20 fd 52 bd 10 af 86 3d 1c 23 0c be
       -0.27458555 -0.05151093 0.06576359 -0.13685268
0002f0 6e a3 f1 3e 70 eb 69 be 60 f9 1e 3e be b2 ad be
       0.47195 -0.22843719 0.15524817 -0.33925432
000300 70 68 72 bd 58 d5 07 be 08 e8 5c 3e ae d3 b2 3e
       -0.05918163 -0.13264978 0.21572888 0.34927124
000310 68 0b f9 3d c0 f2 39 bd 74 1b 03 be 24 b6 c8 3e
       0.12160379 -0.04539752 -0.12803441 0.39201462
000320 a0 f5 f1 bd 8a cf b8 3e 2c ce 63 be a2 fc d2 3e
       -0.118144274 0.3609584 -0.22246617 0.4120837
000330 a0 f9 fe 3e 10 7c af 3e da d3 92 3e 2c 91 3e 3e
       0.49799824 0.3427434 0.28677255 0.18610066
000340 c4 bf 7b be 00 8a c3 3b 40 4c 30 3e 00 c9 05 be
       -0.24584872 0.0059673786 0.17216587 -0.13064957
000350 e8 91 b7 3d e2 ee 95 3e 40 31 ed be 04 03 e9 be
       0.08963376 0.29283816 -0.46326637 -0.45510113
000360 5a 2e 99 be 90 d3 79 3d 78 ce bd bd f0 a9 dc 3d
       -0.29918176 0.060992777 -0.092678964 0.107746005
000370 38 82 f3 bd 5a 96 a7 be d8 f4 87 3d ae 62 ad 3e
       -0.11890072 -0.32731897 0.06638497 0.3386435
000380 2e b6 99 be 46 67 e0 3e 20 05 fc 3d a8 6c fc 3e
       -0.30021805 0.4382879 0.12305665 0.49301648
000390 86 a5 ea be c8 0b f5 be 04 b4 2d 3e ea d1 ee be
       -0.4582941 -0.4786055 0.16963202 -0.46644527
0003a0 84 ca d1 be fa 2b 82 3e 44 8a 78 3e c4 45 e9 be
       -0.4097482 0.25424176 0.24271494 -0.4556104
0003b0 4c 36 b8 3e f0 1c c7 bd 32 0f be 3e 90 3b 96 be
       0.35978925 -0.09722316 0.37120968 -0.29342318
0003c0 32 6c f3 be d0 b4 a9 be a0 bf 9e bd 68 ac ff be
       -0.47543484 -0.3314576 -0.07751393 -0.49936223
0003d0 00 8a 0b bd e0 87 7f be 88 56 ee bd 00 20 95 b8
       -0.034067154 -0.24954176 -0.11637598 -7.110834e-05
0003e0 20 e3 e5 3c 26 6a fa be 2a ae 83 3e d4 e6 9c be
       0.028062403 -0.4890911 0.25718814 -0.30644858
0003f0 5a 03 9c 3e 26 94 ea 3e 5c bf 2a be f0 da 65 3d
       0.30471307 0.45816153 -0.1667456 0.056117

body.0.bias f4 [12]
000000 d8 87 a7 be d4 f7 db be 00 9a 71 bb 28 2d 36 be
       -0.32720828 -0.42962515 -0.0036865473 -0.17790663
000010 e8 39 f4 bd 20 bf 28 3e 30 1a f0 bd b0 83 65 3d
       -0.11925107 0.16479158 -0.11723745 0.05603379
000020 00 72 43 bc f8 11 c3 3e 20 bb 30 3e cc 7b 39 be
       -0.011929035 0.38099647 0.17258883 -0.18113631

body.2.weight f4 [12, 12, 5, 5]
000000 b6 8f c0 be 0e e3 a9 3e 70 e7 59 bd 24 eb 4d 3e
       -0.37609643 0.3318104 -0.05319923 0.2010923
000010 00 7f 5d be ce 69 b5 3e 10 83 ad 3e 80 04 c3 3c
       -0.21630478 0.35432285 0.33889055 0.023805857
000020 38 d0 04 3e b0 bf cd 3d 70 07 42 3e b0 eb 7f bd
       0.12970054 0.10046327 0.1894815 -0.06248063
000030 12 92 dc be 96 45 b3 be c8 a3 9e 3d 5c fa fe be
       -0.43080193 -0.35014027 0.077460825 -0.49800384
000040 84 2d f4 be c6 0e 8d be 8c 70 84 3e d0 2b 19 bd
       -0.47690976 -0.27550334 0.25867116 -0.0373953
000050 80 e0 b5 be 50 e5 aa be bc fd 46 be 54 a5 bc be
       -0.35522842 -0.33378077 -0.1943273 -0.36844885
000060 34 e0 ee 3e c4 0e a4 be a0 b1 87 be da f4 b3 be
       0.46655428 -0.32042515 -0.26502705 -0.35147744
000070 e4 41 39 be f4 89 cb 3e a8 74 3b 3e b0 8c 18 3d
       -0.18091542 0.39753687 0.1830622 0.037243545
000080 ac 96 fc be 54 f3 4e 3e b4 8d ef 3e 00 fd 02 bc
       -0.49333704 0.2021001 0.46787798 -0.00799489
000090 c0 10 ae 3e e0 30 25 be 2a 0c f0 be 00 a5 4c bc
       0.33997154 -0.16131926 -0.4688428 -0.012490511
0000a0 64 1a 4c 3e a0 ec 60 be a0 5c ed 3c d8 3a ab 3d
       0.19931942 -0.21965265 0.028974831 0.08360833
0000b0 76 b5 f5 3e 6a 8c 85 be 22 6a de be 3c 71 6e be
       0.47990006 -0.2608369 -0.43440348 -0.23285383
0000c0 f6 7c b8 3e 98 a8 6d be 10 60 06 bd 2e 14 b8 be
       0.36032838 -0.23208845 -0.032806456 -0.35952896
0000d0 a8 cb 83 be 98 b2 db be ac 2a 19 3e ec c6 ac 3e
       -0.25741315 -0.42909694 0.14957684 0.33745515
0000e0 90 58 88 bd e0 73 14 bd 58 44 03 3e 68 bf 96 bd
       -0.06657517 -0.03624332 0.1281904 -0.073607266
0000f0 a0 08 2c 3d cc 55 52 3e ae 07 c5 3e 66 ae 82 3e
       0.042000413 0.20540541 0.38482422 0.2552368
000100 58 a4 fa 3d fe 53 db 3e dc 33 e4 be 70 8e a8 be
       0.12238377 0.42837518 -0.44570816 -0.3292117
000110 aa 1c d0 3e 84 01 ee 3e b0 ab 6e be 14 00 c9 3e
       0.4064687 0.4648553 -0.23307681 0.39257872
000120 30 f4 6a bd e0 0f 0f be 00 22 9e bc ac 1a 05 be
       -0.05736178 -0.139709 -0.019303322 -0.12998456
000130 08 fd 0c 3e 30 69 1b 3d 00 d1 23 bb cc 43 57 be
       0.13768399 0.03794211 -0.00249964 -0.21021956
000140 8e 7f 9b 3e 7c a3 9e be 00 f5 e0 bb b8 99 a8 3e
       0.30370754 -0.30984104 -0.006865144 0.32929778
000150 5e 78 88 be fc eb aa be 50 1d 08 3e 4c b3 d3 be
       -0.26654333 -0.33383167 0.13292432 -0.4134773
000160 4c 81 55 be 3a 69 df 3e 8e 9b 93 3e 64 82 e7 3e
       -0.20850104 0.4363497 0.28829616 0.45216668
000170 06 c1 f4 be 0a c2 f0 be 18 eb fe 3d 94 61 35 3e
       -0.47803515 -0.4702304 0.12447184 0.17713004
000180 8a 5e 94 be 28 52 38 3e c0 ec b0 3d 70 b6 59 be
       -0.28978378 0.1800009 0.086389065 -0.21261
000190 66 02 ef 3e 8a 9c c4 3e 30 11 d4 3e 40 f8 26 be
       0.46681517 0.3840068 0.41419363 -0.16305637
0001a0 00 85 42 3b 74 cd 73 be 4a 83 d1 3e 5a 8e e8 3e
       0.0029681325 -0.23808843 0.40920478 0.45421106
0001b0 f4 e8 7d be 14 ce 14 3e 6c 76 d9 3e 08 43 82 3d
       -0.24795896 0.14531738 0.4247316 0.063604414
0001c0 7c 54 2c be 30 96 9c bd 04 ef a7 be 46 b3 fa 3e
       -0.16829103 -0.076458335 -0.32799542 0.489649
0001d0 cc 52 80 be 88 ee df 3d 52 1a e0 be e0 50 45 3d
       -0.2506317 0.10934168 -0.4377008 0.04817283
0001e0 66 b5 b4 3e 58 77 d2 be bc b3 35 3e 40 04 29 3c
       0.35294646 -0.41106677 0.17744344 0.010315955
0001f0 9e 96 8a 3e 64 d3 70 be a0 36 99 be dc f8 64 be
       0.27068037 -0.23518139 -0.29924488 -0.22360557
000200 88 e1 94 bd bc a5 d7 3e 00 9d fb bc 76 db bb be
       -0.07269579 0.42118633 -0.030714512 -0.36690873
000210 ec 7e 91 be 38 06 f2 bd 74 0d 16 be 80 ee 31 bd
       -0.28417146 -0.118175924 -0.1465357 -0.043440342
000220 b8 20 4e be 54 25 74 be 0c f8 0e 3e 34 35 19 3e
       -0.20129669 -0.23842365 0.1396181 0.14961702
000230 40 00 57 be a4 56 41 3e 00 b8 4a be 80 7c bf 3c
       -0.20996189 0.18880707 -0.19796753 0.023374796
000240 e8 1b d3 bd 00 5d 4f 3c 2a dd d0 3e 00 18 4f be
       -0.10308057 0.01265645 0.40793735 -0.20223999
000250 c4 33 e7 3e 60 0a bb bc b2 fe ad be 08 7d 33 3e
       0.45156682 -0.022832096 -0.3398338 0.17528164
000260 e0 7b 66 3d 10 27 fb 3e 6a 10 c4 3e 1a d6 ed be
       0.05627048 0.4905324 0.38293773 -0.4645241
000270 8a 13 dc 3e de b1 ea 3e 5e 6c 85 3e 00 fa d0 bc
       0.42983657 0.45838827 0.2605924 -0.025509834
000280 f6 24 f8 3e 50 1b 04 3d a0 67 ef 3c e0 b8 bf bc
       0.484657 0.03225261 0.029224217 -0.023403585
000290 40 e2 89 3e 50 87 31 bd c0 cf 47 3d 08 c3 47 be
       0.26930428 -0.043341935 0.04878211 -0.19507992
0002a0 b0 28 82 3d 0e 6e 83 3e 76 44 88 3e e4 11 f0 3e
       0.06355417 0.25669903 0.26614732 0.4688865
0002b0 60 10 38 3d 14 46 ed be 8c 03 9c be 58 17 76 be
       0.04493749 -0.46342528 -0.30471456 -0.24032342
0002c0 e0 63 20 bd 3c 63 d5 be e0 e3 cc 3e 82 70 d6 3e
       -0.03915775 -0.41677272 0.40017605 0.41882712
0002d0 9e 06 b9 be 84 0b 05 be 1a 4b 9c be aa e0 8b be
       -0.3613786 -0.12992674 -0.30526048 -0.27319843
0002e0 da e0 ea 3e a0 2f 74 be 4c 05 67 3e 06 e2 88 3e
       0.45874673 -0.23846292 0.22560614 0.26734942
0002f0 90 8f 88 3d 36 9d a0 be 70 b8 12 bd d8 8d c9 bd
       0.066680074 -0.31369942 -0.035820425 -0.09841508
000300 c8 0c ff 3e 5e ba b0 3e 60 ff 68 3d 5c 84 88 3e
       0.4981444 0.34517187 0.05688417 0.26663482
000310 ce 7e c8 be 16 22 93 3e 54 69 70 3e 52 e2 fc 3e
       -0.39159244 0.28736943 0.2347768 0.4939142
000320 f8 5c 11 be 24 e8 a9 be 0a f4 d4 3e ea c1 f9 3e
       -0.14195621 -0.33184922 0.41592437 0.48780757
000330 60 ff 20 3d 28 c1 e0 3d 18 e0 f8 3e 86 f2 d8 be
       0.039306045 0.10974342 0.4860847 -0.4237253
000340 a4 c5 1c be ba 90 bc be 74 6f 74 3e 20 f5 aa 3e
       -0.15309769 -0.36829168 0.23870641 0.3339014
000350 c6 7e dc be 10 14 a5 bd dc 1d e8 be fe e8 bc 3e
       -0.4306547 -0.08060467 -0.4533528 0.3689651
000360 1e 46 cc 3e ec ef 26 3e 00 61 7b bb 80 d8 ae bb
       0.39897245 0.1630246 -0.0038357377 -0.0053358674
000370 06 39 ab 3e f4 47 30 3e 8c 7e c3 be 08 38 cc 3d
       0.33441943 0.17214948 -0.38182485 0.099716246
000380 7e 47 cc 3e 72 81 a6 3e cc ec b4 be a6 0c c8 be
       0.39898294 0.32520634 -0.35336912 -0.3907215
000390 92 84 a0 3e 90 36 cf 3e 30 bd 80 be a0 1f a0 be
       0.31351143 0.40471315 -0.2514434 -0.31274128
0003a0 c0 61 ed 3d a8 79 81 be 9e 38 84 3e 58 69 40 3e
       0.1159091 -0.2528813 0.25824445 0.18790185
0003b0 ac 32 ca 3e f8 e3 cd bd 30 b6 16 be 9a 3f c8 be
       0.39491785 -0.10053247 -0.14717937 -0.39111024
0003c0 0a d4 e3 3e b8 0d 83 3e 50 55 64 3d d8 1a 9c be
       0.4449771 0.25596404 0.055745423 -0.3048923
0003d0 fa cb d5 3e 12 cd ea 3e 10 89 fd bd 4a 26 94 be
       0.41757184 0.4585958 -0.12379658 -0.28935462
0003e0 d8 51 5e be 86 b8 a7 3e c4 11 dd be e0 bf 67 be
       -0.21710908 0.32757968 -0.43177617 -0.22631788
0003f0 c0 20 59 bc c4 4b a6 3e 68 fc 89 bd a0 81 bc be
       -0.013252437 0.3247968 -0.06737596 -0.36817646

body.2.bias f4 [12]
000000 20 c2 f5 3e c0 6c a5 bd d8 a4 bc 3d 48 8b 4d 3e
       0.47999668 -0.08077383 0.09211129 0.20072663
000010 88 f5 e0 3e a0 ac 55 bd 26 c3 da be 7a 14 e0 be
       0.43937325 -0.05216658 -0.4272701 -0.43765622
000020 30 24 c6 be 6c 49 23 3e 8a 54 9d 3e 6e b5 99 3e
       -0.38699484 0.15945977 0.3072856 0.30021232

body.4.weight f4 [12, 12, 5, 5]
000000 34 b7 46 be 40 7d cd bc d0 5c ea 3d 88 77 33 be
       -0.19405824 -0.025084138 0.11443484 -0.17526066
000010 70 73 4f 3d a4 2d 00 3e 6c 45 c6 be 58 af 41 3e
       0.0506472 0.1251741 -0.3872484 0.18914545
000020 70 1f 91 bd ec 67 29 be 16 df 83 be 82 30 9d be
       -0.07086074 -0.1654355 -0.2575614 -0.3070107
000030 ca 2a d3 be a4 f6 7f 3e 00 fa fc bc 7c 19 ba 3e
       -0.41243583 0.2499643 -0.030880928 0.36347568
000040 92 39 d3 be 9c f5 ab be 20 17 0d 3e 56 6b a0 be
       -0.4125486 -0.33585823 0.13778353 -0.3133189
000050 4c 9f be 3e b4 3a ac 3e 32 84 fc be ac 24 ae 3e
       0.3723091 0.33638537 -0.49319607 0.34012353
000060 9e 89 8a be 80 3c c1 3e a8 47 b7 3d 70 5d 5c 3e
       -0.2705812 0.3774147 0.08949214 0.21520019
000070 18 9a a5 3d 9a 35 cb 3e 20 b6 32 3d 2c 2e c9 be
       0.08086032 0.39689332 0.04363072 -0.3929304
000080 f8 11 fe 3e f0 16 77 3d 64 b5 27 be 08 1c e1 3d
       0.49623084 0.06032461 -0.16377789 0.10991675
000090 bc fb b9 be 30 a9 a3 3d 40 0e 7a 3d c8 b1 a0 bd
       -0.3632487 0.07991254 0.061048746 -0.07846409
0000a0 e8 16 d7 3e 64 a1 18 be e0 76 df bc 78 66 31 3e
       0.42009664 -0.14905316 -0.027278364 0.17324245
0000b0 24 2a 8f 3e 78 c9 59 be 64 89 d7 3e 50 3c 56 3d
       0.27961838 -0.2126826 0.42097008 0.052303612
0000c0 c6 21 e5 be 00 e0 56 3e da 4f 9d be 00 c8 7a bc
       -0.4475233 0.20983887 -0.30724984 -0.015306473
0000d0 1c 58 70 3e c0 28 cd bd 60 1f 8c 3c b0 48 64 3d
       0.23471111 -0.10017538 0.017104805 0.055733383
0000e0 44 78 ec 3e f0 93 98 be 50 2c 74 3d ae 5e a3 be
       0.46185505 -0.29800367 0.059612572 -0.31908172
0000f0 e0 58 57 3d c2 0b 89 be d0 72 45 be 20 1c b9 3e
       0.052574992 -0.26766783 -0.19282079 0.3615427
000100 a6 c3 ce 3e ea 5a ba 3e 40 0c 09 be b0 06 95 3d
       0.40383643 0.36397487 -0.13383579 0.07276666
000110 72 ca cc be 4e f2 8e 3e da c1 e4 3e dc 23 33 be
       -0.39998204 0.2791924 0.44679147 -0.17494148
000120 e0 80 f4 3c 40 81 65 bc b6 fc fe be 60 a2 a8 be
       0.029846609 -0.014007866 -0.49802178 -0.32936382
000130 44 b0 cf be 6a cc 86 3e e6 6f a1 be 9c 82 19 3e
       -0.40564167 0.2632783 -0.31530684 0.1499123
000140 50 4d 63 be 34 b5 88 be 7c c4 27 be 10 b1 0f 3d
       -0.22197461 -0.26700747 -0.16383547 0.03508097
000150 7c 95 f7 3e ca a4 ce be 78 46 a1 3e 2e b2 f7 3e
       0.48356235 -0.403601 0.31499076 0.48378128
000160 00 07 7d be 7a d3 b1 be 00 75 35 3e de b8 ab be
       -0.24709702 -0.34731656 0.17720413 -0.3353948
000170 74 1d 25 be 40 42 fa 3d 6c 1f 34 be 5c b1 c1 3e
       -0.16124517 0.122196674 -0.17590111 0.37830627
000180 68 c2 fe 3e 04 ba 44 be 06 34 f1 3e d8 b9 8d 3d
       0.49757695 -0.19211584 0.47110003 0.069202125
000190 0e 0e 8e be c6 71 a2 be 56 92 e8 3e 00 3a b1 bb
       -0.27745098 -0.31727427 0.45424145 -0.0054085255
0001a0 1e c7 96 be 40 ba 8a 3d f0 42 dd bd a0 17 ba be
       -0.2944879 0.067738056 -0.10803783 -0.3634615
0001b0 d8 0a 62 be ba 6b ca 3e 5c dc 43 3e 84 6a b8 3e
       -0.22074449 0.39535314 0.19127029 0.36018765
0001c0 5a 61 92 be dc c6 97 3e ca 98 fa be 50 06 1f 3e
       -0.28589898 0.29643905 -0.48944694 0.15529752
0001d0 6a 20 c8 3e 40 24 ca bc 44 30 59 be 40 b4 ab bc
       0.3908723 -0.024675488 -0.21209818 -0.020959973
0001e0 14 e4 57 3e b8 ea b6 bd 14 a6 7f be 18 49 57 3e
       0.21083099 -0.08931488 -0.24965698 0.21023977
0001f0 84 60 ed 3e 70 4f e1 3e 20 4e 0b 3e 20 29 be 3c
       0.46362698 0.44005919 0.13604021 0.02321297
000200 58 93 84 bd 80 30 e3 3b f2 4a f6 be 20 11 4f be
       -0.06473416 0.006933272 -0.48104054 -0.20221376
000210 a6 e9 a1 3e f0 ee bd 3d 50 d2 32 3e c2 7a 90 3e
       0.31623572 0.09274089 0.1746304 0.28218657
000220 8a 4f cf be 80 e0 d8 be 8c 5f 1d 3e a0 fc 5f 3d
       -0.4049037 -0.4235878 0.1536848 0.05468428
000230 82 f2 c5 3e 1c f2 d7 be 5c dd ab 3e 4e 12 fa 3e
       0.3866158 -0.42176902 0.3356732 0.4884209
000240 68 e0 ce bd c0 97 46 3e fe 8c e0 be 00 c0 ff ba
       -0.10101396 0.19393826 -0.43857569 -0.0019512177
000250 1e 8c 85 be 34 3b 63 3e 48 25 7d 3e a4 ab d6 be
       -0.26083463 0.22190553 0.24721253 -0.41927826
000260 34 5b 22 3e 80 c4 bd bb 1e 2f f0 be f6 6b ec be
       0.15855104 -0.005791247 -0.46910948 -0.46176118
000270 50 de 1f bd a0 3a 52 3d b0 9f 66 3d 8a 42 8c be
       -0.039030373 0.05132544 0.056304634 -0.27394515
000280 24 93 a6 be 50 62 f1 3e c2 2f a2 be 24 3d 77 be
       -0.32534134 0.4714532 -0.3167706 -0.24144417
000290 3c f4 e1 be d8 00 25 be 48 24 82 be 44 b6 c9 3e
       -0.4413165 -0.16113603 -0.25418305 0.3939687
0002a0 84 d0 8a be ea 78 de be 40 42 3c bc ac 26 cc be
       -0.2711221 -0.43451625 -0.011490405 -0.39873254
0002b0 4c 9e ce 3e 50 98 de bd d2 db a5 be 90 1d 0f 3d
       0.40355146 -0.10868895 -0.32394272 0.034940302
0002c0 a0 3e 3f bd 54 25 e4 3e fa 16 db be be 54 a4 3e
       -0.046690583 0.4455973 -0.42790967 0.32095903
0002d0 98 77 88 bd d4 b6 bd be d2 08 e2 be d0 ba e3 3d
       -0.06663436 -0.3705355 -0.44147354 0.11119616
0002e0 1c af 20 3e c6 39 c3 3e 32 1c c7 be 4e 1e 87 be
       0.15691799 0.38130015 -0.388887 -0.26390308
0002f0 50 2a 0a 3e cc 00 6a 3e 70 a5 08 be 30 ed f7 bd
       0.13492703 0.22851866 -0.1334436 -0.12105787
000300 fc 3c 96 3e 00 0c aa 3e 50 80 e1 be bc be 1e 3e
       0.29343402 0.3321228 -0.44043207 0.15502447
000310 f4 40 0a 3e 04 ec b9 3e 60 5d 48 3d 70 f7 53 bd
       0.1350134 0.36312878 0.048917174 -0.051749647
000320 e6 23 a2 3e cc b8 37 be ce 5e 81 be 90 0f 60 be
       0.31668013 -0.17941588 -0.25267643 -0.21880937
000330 0c 73 7b 3e 74 64 65 3e 88 a0 79 be 8a 00 ba 3e
       0.24555606 0.22401601 -0.24377644 0.36328536
000340 2c 76 09 3e 30 4a df bd e0 36 b8 3e 40 8c 24 be
       0.13423985 -0.10902822 0.35979366 -0.16069126
000350 40 03 cd bd 90 c6 2b 3e b8 e0 d2 bd 9a 83 d4 3e
       -0.100103855 0.16774964 -0.10296768 0.41506654
000360 ee d6 c5 3e f0 28 e2 be 0e 3c 9e be a8 be 6b 3e
       0.3864054 -0.44171858 -0.30905193 0.23021948
000370 98 7b 8d 3d 78 fb 8b 3e 14 f5 0c 3e 70 2a c5 be
       0.06908339 0.27340293 0.13765365 -0.3850894
000380 90 87 d2 bd f0 eb 48 bd 58 3b 72 be c4 45 24 be
       -0.10279763 -0.049053133 -0.2365545 -0.16042238
000390 00 41 0c be 8c b0 39 3e 02 a0 f0 be 08 b7 f7 be
       -0.1369667 0.18133754 -0.46997076 -0.4838183
0003a0 4e a1 bf 3e 84 fc 6e be 10 3d 6a 3e 80 67 78 3e
       0.37427753 -0.23338515 0.22874856 0.24258232
0003b0 fe 9e 86 be 4a a6 db 3e 40 1f 88 be b0 5b 1f bd
       -0.26293176 0.42900306 -0.26586342 -0.0389058
0003c0 8c 2c 07 3e 08 6a bd bd 1c 58 19 3e 98 53 4d be
       0.13200587 -0.092487395 0.14975017 -0.2005142
0003d0 40 b7 d9 3c 68 e2 a9 3d 18 68 9f 3d 40 e0 53 3c
       0.026576638 0.08295137 0.07783526 0.012931883
0003e0 40 ab b3 3d 3c e0 eb 3e 20 46 ce 3c ac a6 ff be
       0.08772898 0.46069515 0.025179923 -0.49931848
0003f0 18 9b bb 3d 20 5d f1 3d 98 f1 bd be 34 a3 dd 3e
       0.09160441 0.1178534 -0.37098384 0.43288577

body.4.bias f4 [12]
000000 22 83 f9 be c2 11 a0 be 1c 98 68 3e 48 85 61 be
       -0.4873286 -0.31263548 0.22714275 -0.22023499
000010 a4 15 87 be d0 6c f5 bd 54 c6 f4 be de 8c dc be
       -0.26383698 -0.11983645 -0.47807562 -0.43076223
000020 fe b0 8a be ec 65 11 3e 54 b7 7a be b2 8f ff 3e
       -0.2708816 0.14199036 -0.24483997 0.49914318

fc.0.weight f4 [100, 768]
000000 98 c0 c3 be 84 03 b2 be 40 2d 48 be 54 c9 42 3e
       -0.38232875 -0.34768307 -0.19548512 0.19022113
000010 48 fb 3f be a4 64 12 be d0 8f 1e 3d 8c 2b 85 3e
       -0.187482 -0.14296204 0.03871137 0.26009786
000020 38 f1 20 3e d8 63 35 3e 40 79 50 bc cc cf 8d 3e
       0.15717018 0.17713869 -0.012724221 0.276976
000030 54 bf f0 3e c0 b7 ec 3e bc ad 2e 3e ba e6 8e be
       0.47020972 0.4623394 0.17058462 -0.27910405
000040 40 07 74 be 9e ac d1 be 9c 76 62 3e a2 51 92 3e
       -0.2383089 -0.4095201 0.22115558 0.28577906
000050 a0 7d d3 3c 5e 24 9c 3e a0 d8 a2 3c 14 e7 4b be
       0.025816739 0.30496496 0.019878685 -0.19912368
000060 84 48 76 3e fa 79 be 3e 1c c3 8b 3e c0 ab fc 3c
       0.240511 0.37202436 0.27297294 0.030843616
000070 00 9d 7c bd ea 86 d0 3e 0e c7 85 3e 80 66 bb 3d
       -0.061673164 0.4072793 0.2612843 0.0915041
000080 32 1a df 3e 90 b7 f0 be cc 14 47 3e 06 de f3 be
       0.43574673 -0.47015047 0.19441527 -0.47630328
000090 94 93 a5 be b6 70 82 be 66 3e 90 3e 56 4d 8c be
       -0.32339156 -0.25476617 0.28172606 -0.27402753
0000a0 e8 fb e1 3d 2c 20 f8 be e0 6b 0c 3d 70 a3 6b bd
       0.110343754 -0.48462045 0.034282565 -0.057528913
0000b0 08 af 4d be 38 58 a4 bd 4c 24 a3 3e 52 fe de be
       -0.200863 -0.08024639 0.3186363 -0.43553406
0000c0 ac b8 29 be a4 22 d4 3e d0 ba fd 3d a4 66 63 be
       -0.16574353 0.4143268 0.12389147 -0.22207123
0000d0 f0 2b 3e 3e a6 99 8e be ea f9 e8 be 84 19 16 be
       0.18571448 -0.278516 -0.4550317 -0.14658171
0000e0 a0 36 b2 3e 80 77 62 3e 68 1c 70 3e b0 d7 0a 3d
       0.348073 0.22115898 0.23448336 0.033897102
0000f0 70 96 5c 3e 28 71 fc be 40 9a 29 3d 40 e9 3e 3e
       0.21541762 -0.4930508 0.04140687 0.18643665
000100 f4 06 b6 3e 80 ff 26 3d 80 b3 b9 3d e8 42 5f be
       0.3555218 0.040771008 0.0906744 -0.21802866
000110 60 81 1b 3e 16 b7 c4 3e 14 40 f0 3e dc fb 76 be
       0.15186071 0.38420933 0.46923888 -0.24119514
000120 44 b8 3f 3e a4 57 00 3e 1c 3b 78 be a0 ba 79 be
       0.18722636 0.12533432 -0.24241298 -0.24387598
000130 80 a1 16 bd e2 1f 89 be e4 fc 55 3e 56 66 b5 be
       -0.036775112 -0.26782137 0.20897251 -0.3542964
000140 f8 57 b5 3e 0c db 94 be 54 9a 2e 3e d6 f2 f9 be
       0.35418677 -0.2907337 0.17051059 -0.48818082
000150 96 d4 b9 be 00 28 ae ba ec e8 02 be 0c e6 f1 3e
       -0.36295003 -0.0013287067 -0.12784165 0.47245824
000160 e8 e5 8c 3d 70 56 05 3e 30 eb d5 3d 94 d5 3a 3e
       0.06879789 0.13021255 0.10445249 0.18245536
000170 98 e2 3c 3e 24 c3 9f 3e 78 8d 8e 3d a4 87 f9 3e
       0.18445814 0.31203568 0.06960577 0.48736298
000180 3a 58 8f be 9c a4 d0 3e ba b7 be be 18 2e c8 be
       -0.27997 0.40750587 -0.37249547 -0.39097667
000190 ca 27 97 be 80 94 bf bd 90 e6 d2 3e 2e 51 b8 be
       -0.29522544 -0.09354496 0.4119153 -0.35999435
0001a0 b8 80 d7 be 80 23 02 3c 60 94 05 be 88 bb f7 3e
       -0.42090392 0.007943034 -0.13044882 0.48385262
0001b0 48 d8 aa 3e d8 e6 75 be 08 4a ed 3d fe b4 a2 be
       0.33368134 -0.24013841 0.11586386 -0.3177871
0001c0 2c 6f 41 3e 70 f4 75 3d c8 f8 3b be 4c 8a 21 3e
       0.18890065 0.060047567 -0.18356621 0.15775412
0001d0 84 51 6c 3e 86 96 87 3e 00 34 5f bc de 66 fc be
       0.2307797 0.26482028 -0.013623238 -0.4929723
0001e0 1c 36 bf 3e 74 20 8d 3e da 38 93 3e 0a b0 81 3e
       0.3734597 0.27563822 0.28754312 0.2532962
0001f0 96 f1 fb 3e 82 f5 8b 3e 40 6f e7 be 98 b6 8f 3d
       0.49207753 0.27335745 -0.45202065 0.07017249
000200 04 1b 3b be 64 fb f2 3e 76 0b 8a be 08 b0 8e be
       -0.18272024 0.4745742 -0.2696187 -0.27868676
000210 3c fb 6a be 84 3c 5a be 68 b7 d3 3e d0 dc e5 3e
       -0.22947401 -0.21312147 0.41350865 0.4489503
000220 a0 42 e1 bd f0 b9 99 3d 5c b4 61 3e 56 ba 84 3e
       -0.10999036 0.07506168 0.22041458 0.25923413
000230 34 10 2d 3e 00 b8 91 bd 72 68 a8 be fa 2c e7 3e
       0.16900712 -0.07115173 -0.32892185 0.45151502
000240 da 33 88 3e a6 4c b4 3e 08 30 6e 3e 80 c5 c7 3e
       0.2660206 0.35214728 0.2326051 0.39017868
000250 fa a0 ee 3e 82 d6 9c 3e 88 b5 8b 3d 60 41 6b be
       0.4660719 0.30632406 0.06821734 -0.22974157
000260 20 75 3c bd 68 9e 6f be 60 78 1b 3e 9a f8 ec be
       -0.046010137 -0.23400271 0.15182638 -0.46283418
000270 18 0a 96 be b8 75 dc 3d 36 04 b5 be e0 eb b0 bd
       -0.29304576 0.107646406 -0.35354775 -0.086387396
000280 4a 10 bb be 20 31 04 bd 24 20 22 3e 34 5f fb be
       -0.36535865 -0.03227341 0.15832573 -0.49096072
000290 04 2d 7d be 9c 38 30 be e6 c3 a7 be f8 52 aa 3d
       -0.24724203 -0.17209095 -0.32766646 0.08316606
0002a0 28 b9 d1 be 5c 5d ca 3e 78 df e9 be 40 70 64 bc
       -0.40961576 0.39524353 -0.45678306 -0.013942778
0002b0 28 27 e2 3e 28 81 90 bd 5c 3f ac 3e a0 2a 53 3d
       0.441705 -0.070558846 0.3364209 0.051554322
0002c0 68 a8 98 be c0 17 c4 bd 30 4e 65 bd d0 30 48 bd
       -0.29815984 -0.095748425 -0.05598277 -0.048874676
0002d0 f4 4f 6e 3e f4 9b e8 3e 4c 6a 6f 3e c0 1c 20 3e
       0.23272687 0.45431483 0.23380393 0.15635967
0002e0 20 5f b2 3c 00 1e d0 bd 70 50 d6 3e 88 b3 a9 3e
       0.021773875 -0.10161972 0.41858244 0.33144784
0002f0 88 06 47 3e 60 83 da 3e 84 6c 34 be e0 d4 c8 3c
       0.19436085 0.42678356 -0.1761952 0.02451557
000300 28 a9 ad be 52 5d af be 98 57 09 3e f8 c7 da 3e
       -0.33918118 -0.34250885 0.1341232 0.4273069
000310 20 9f ad be 98 ae 91 be ec a2 c8 3e f8 1f 1c be
       -0.33910465 -0.28453517 0.391868 -0.1524657
000320 80 83 9c 3e 04 89 32 be e0 eb 87 3c 5c bf 78 3e
       0.30569077 -0.1743508 0.016591966 0.24291748
000330 5c 9b bd 3e b4 a8 03 be 28 23 da 3d 76 23 e8 be
       0.37032592 -0.12857324 0.10651237 -0.45339555
000340 7c 68 9e 3e 02 4b de 3e b0 4a b4 be 94 7f 54 3e
       0.3093909 0.434166 -0.35213232 0.20751792
000350 40 98 2f bc 10 dd f7 bd 42 8c bf be b8 16 56 be
       -0.010717452 -0.12102711 -0.37411696 -0.20907104
000360 78 59 1e be 40 ed 81 3d f4 2d a5 3e 20 7a 5c bd
       -0.15463817 0.0634408 0.32261622 -0.053827405
000370 e6 08 fe be 66 75 af 3e c0 51 3a 3d ee 4a a4 be
       -0.49616164 0.34269255 0.04548812 -0.32088417
000380 70 a0 bc be 98 27 15 be 1a bd dd be 18 a8 7c be
       -0.36841154 -0.14565885 -0.43308336 -0.24673498
000390 58 5b 54 3e f8 8a ff 3d 00 3a d7 bd 06 97 cf 3e
       0.2073797 0.12477678 -0.105091095 0.4054491
0003a0 be 5e 91 be 10 38 21 3e 2e c8 e7 be c2 08 ef 3e
       -0.28392595 0.15744042 -0.45269912 0.4668637
0003b0 00 66 8c 3c be 62 9d be 98 12 fb 3e 7c 43 d5 3e
       0.017138481 -0.30739397 0.49037623 0.4165305
0003c0 98 ca e2 bd 14 04 f1 be 00 d7 42 3d de c1 e3 3e
       -0.11073798 -0.47073424 0.04756832 0.44483846
0003d0 c0 25 1c 3e e8 78 b8 3d 80 e3 e8 bd 70 ed 49 3d
       0.15248775 0.09007436 -0.11371517 0.049298704
0003e0 80 05 f5 bd 38 06 07 be 46 17 ec 3e 00 62 1b 3c
       -0.1196394 -0.13185966 0.46111506 0.009483814
0003f0 20 99 0e bd 10 f5 74 be f4 4a 5b be 8a c0 dc 3e
       -0.034814 -0.23921609 -0.21415311 0.43115646

fc.0.bias f4 [100]
000000 8c f8 a0 3e fc eb 34 3e 58 bc a6 3e 90 74 c6 bd
       0.31439626 0.17668146 0.3256557 -0.09690201
000010 e4 b6 f1 3e f0 9d be 3e 0e f1 e2 3e 9c a7 1d 3e
       0.47209847 0.37229872 0.44324535 0.15395969
000020 00 a2 a0 bd 44 51 a9 3e 84 3f 2b be 2a 41 ae 3e
       -0.07843399 0.33069813 -0.16723448 0.3403409
000030 38 df fc 3e 18 8a a4 3e d0 e2 16 be 98 21 f1 bd
       0.49389052 0.32136607 -0.1473496 -0.117739856
000040 52 3b 9b 3e 02 48 bd 3e 04 41 ee 3e ea 4b 9f be
       0.30318695 0.36969 0.46533978 -0.31112605
000050 c2 b8 aa be e4 9e 46 be 82 a4 ae be b0 28 af 3e
       -0.33344084 -0.1939655 -0.34109885 0.3421073
000060 30 d0 64 bd f6 7f cd 3e a8 65 04 be b0 5a e0 be
       -0.055862606 0.4013669 -0.12929404 -0.4381919
000070 a6 f5 c4 3e 60 95 f4 bc 42 00 e5 3e ba 3e 8c 3e
       0.38468665 -0.029856384 0.4472676 0.27391607
000080 f8 d8 d6 be b6 02 bb 3e 38 06 46 be 8c 34 96 be
       -0.4196241 0.36525506 -0.1933831 -0.29336965
000090 34 b6 e7 be a0 ea 69 3e 66 11 a0 be 80 1b d4 3e
       -0.45256197 0.22843409 -0.31263274 0.4142723
0000a0 68 b4 c2 3d da d1 c5 be 04 14 93 3e e0 50 d4 bd
       0.09507066 -0.38636667 0.28726208 -0.10366988
0000b0 98 db 0b be 08 27 9a be 80 31 d3 3c f8 50 da be
       -0.13657987 -0.30107903 0.02578044 -0.426399
0000c0 b4 4f d8 be 3a e9 e5 be a8 82 6d be 2c b0 e8 3e
       -0.4224831 -0.449045 -0.23194373 0.45446908
0000d0 f4 05 ec be ac 1d 64 3e a8 f2 91 bd fc e1 3b be
       -0.46098292 0.22276944 -0.07126361 -0.18347925
0000e0 40 1f 38 3c bc 7d a5 3e 38 ac d7 be 5e dd b7 3e
       0.011237919 0.3232249 -0.4212358 0.35911077
0000f0 70 ed 71 bd 02 d7 a6 be e0 b2 74 3d cc 70 bf 3e
       -0.05906433 -0.32585913 0.0597409 0.37390745
000100 20 fe 6b 3e b2 61 c7 be f4 d4 16 be 74 51 22 3e
       0.2304616 -0.38941723 -0.14729673 0.15851384
000110 a0 71 46 bd 0c c0 21 3e 2c ea 06 3e b8 56 4b 3e
       -0.048448205 0.15795916 0.13175267 0.198573
000120 58 ec 26 3e 1e dd bf 3e 30 cc d3 3e 06 e9 f3 be
       0.16301095 0.37473387 0.4136672 -0.4763872
000130 3e 2c e8 be 58 5a b3 3d 50 12 6b 3e 36 99 8d be
       -0.45346254 0.08757466 0.22956204 -0.27655953
000140 f6 fb ae 3e b0 02 4f 3d 50 87 7b be d8 1a e9 3d
       0.34176606 0.050539672 -0.24563336 0.11382073
000150 20 4c 7f 3e c8 62 f6 3e 80 4c 29 bc e6 7a ba be
       0.24931383 0.4812224 -0.01033318 -0.3642189
000160 46 b4 bd be 14 9d 66 3e b4 90 14 3e f4 8a 54 be
       -0.370516 0.22520858 0.14508325 -0.20756131
000170 b8 ca fe bd 1e e8 9f 3e 50 c4 51 3d b8 99 20 3e
       -0.12441009 0.3123178 0.05121261 0.15683639
000180 48 b3 94 bd 96 c6 d1 3e 34 e7 04 3e 14 10 4e 3e
       -0.07260758 0.40971822 0.12978822 0.20123321
